app/src/main/assets/quantizedModel.tflite (tflite, 344248 bytes, 10 tensors)

sequential/conv2d/Conv2D/ReadVariableOp f4 [1, 3, 3, 64]
00000000: 39d5 853d 0248 7dbd 2bf3 7d3e b9c1 1b3d
00000010: 292f 51bd dba5 883d 0777 b2bd e8f9 57bd
00000020: 2a85 03bd 98b3 1bbe 48cc b5bd 32a9 bdbb
00000030: b8d3 9abe 89c0 89be 5b77 e7bd aebb a5bd
00000040: a7cd 75bd 08b3 2fbe d9f5 893b daaa 99bc
00000050: 623d 043e 8ddb 62be 8c49 e33d 064c c8bc
00000060: 376c a73e 56af 46bc 47e7 84bd 6e5b 68be
00000070: 3932 8a3e ca70 ddbe 8c8e dabd aa8c e9bc
00000080: 69fc afbe f103 28be b9b2 90be 68fa 853c
00000090: 2a85 0dbe 46a5 1cbd feb6 b2bc 64c6 b33c
000000a0: 5040 0cbf 601b 07be f62b bdbd 3321 d5bd
000000b0: 1bce ccbd 78fe 0d3e b5e9 a5bd a2ef 8bbd
000000c0: d91b 6a3b 533d 51be 9064 96bd ceae b4be
000000d0: 6a76 943d 34bc 26bf 93d8 a33d edd1 743d
000000e0: 31f4 3fbd f222 c9be d1c6 a73c 170a 0cbc
000000f0: df94 11ba a73f cabd 51f1 5abe 8087 91be
00000100: 6697 a8bd 7dcc 80bd de3d 853e 91f7 cdbe
00000110: fc27 1c3e f08e e6bd 1581 86be 4e23 2dbe
00000120: f6e3 953c dfb1 3f3d 6195 58be b567 bb3e
00000130: 21ef 0a3e 2611 133e 87b5 a1be 7d23 7dbe
00000140: 4aed 3e3e 004e 253e 41cf 4b3b 78dd 333e
00000150: 5076 edbd bb6e f1be b029 723e 5f1f e3bb
00000160: 9d94 0c3e 3a9c e0be 4514 0fbf ce65 3dbe
00000170: dce0 18be 1263 333d 704d 5dbe 142f 0ebe
00000180: bc24 22bf b09b 5c3c 3022 8abe e554 723e
00000190: d88f 2a3e 2606 61be 7cca 9fbe 6f90 98bd
000001a0: 6c9a 5e3c bd15 87be 9985 d8bd 6d52 723d
000001b0: 6127 b2be 6f50 b4be 38a4 88be d908 a8bd
000001c0: 5e36 49bd 419f 4a3e ccfb a43d 3b87 153e
000001d0: 3186 a13e d80e 513c b4de d7be eb77 30be
000001e0: dd76 3f3e 49ef b5be a3a2 ddbd 88fb 23bc
000001f0: 79fd 2fbe 5188 8bbc e950 dd3d 072b 293e
00000200: e9dc 22be 71dd 153e b8bf d4bd fece 1f3c
00000210: 664d 933e 067d 6f3d 468e 40be 3571 1f3e
00000220: d5a7 54bd 5464 32bf a80f 533e f0d0 3ebd
00000230: 1e9d 18bf 3dac 6dbe 1ecc 9fbe cb23 693e
00000240: ba97 8dbc ced7 2dbc 2896 c7bc 9ea0 7e3e
00000250: d797 573d ec42 e8be b89c 90bc f797 01bf
00000260: 1715 f3bd 7aed 7cbe 2403 b7bd 3472 823c
00000270: b9f9 00bf 5bcc 56bd c114 2c3e 73fb 153e
00000280: 8b4a 2fbe 5cef 423e 2559 cdbd d810 293d
00000290: a5b8 0fbf 072b 6c3e e3d8 7a3e bde5 2dbf
000002a0: a83c 6e3e 33dc 08be cf2c ddbe 9cd3 26bd
000002b0: c76f 023e 41ec e4be 90e8 20bd dce3 223e
000002c0: e9d0 97be 4a5d a1be ec64 903e 8b40 1abe
000002d0: 31cb 8abd 579b 6c3e 356a a3be dbdf 2e3d
000002e0: a4c4 783d 1bc9 cebb 631a 253d d272 16be
000002f0: c861 223d b30c b33c 8bc2 7fbe ffea 47be
00000300: a8d3 67bd 573d 42bd e644 87be 17a3 5fbd
00000310: 9d20 923d 6911 033d e4bd 2f3e bf60 c5bd
00000320: 7dc7 04be 325e 283e 1e95 76be b1c7 c53d
00000330: 6dfd 623e 18fa 86bb 5d86 06bf babf 1bbe
00000340: 9636 683e d596 92bc 111b 5abd 3711 4bbe
00000350: 8d57 763d f0a6 ec3c 043b 91be d5f4 adbc
00000360: c2d4 86be 292a 803c 6337 21be 01ed e83d
00000370: dcd8 883e f0be 14be 00e2 eabe 49c4 1abd
00000380: e24f 6fbd 0d88 bbbd a9df 7ebe 18cb a9bc
00000390: aaac f13c e6f9 17bb 1676 d1bc d350 debd
000003a0: d858 a1be 597e d3bd c3a4 8e3e 25f6 afbd
000003b0: aac1 203e b263 6f3d 9d0b 17be 6afd 93bc
000003c0: ae64 2dbe 8e3e 1e3e 02c1 23be ec90 d7bd
000003d0: 26eb e4be 35db 88be c250 d23d deec 6dbe
000003e0: 6a0f 56be 8462 53be f701 29be ed43 17bd
000003f0: 35b2 583e 77fe 60bb e9ea 933e efd9 11bf
0.065348096 -0.06183625 0.24799792 0.038026545 -0.051070366 0.066722594 -0.08714109 -0.052728564
-0.032109417 -0.15205228 -0.08876854 -0.005787992 -0.30239654 -0.26904705 -0.11302062 -0.08092438
-0.06001058 -0.17158139 0.0042102155 -0.018758226 0.1291404 -0.22154064 0.11098012 -0.024450313
0.3269975 -0.012126764 -0.06489425 -0.22691128 0.26991442 -0.43250114 -0.1067172 -0.028509457
-0.3437226 -0.16407754 -0.28261355 0.016354755 -0.1382033 -0.038243555 -0.021815773 0.021945186
-0.54785633 -0.13194036 -0.092369005 -0.10406723 -0.10000249 0.13866603 -0.08101217 -0.06832816
0.0035722165 -0.2043355 -0.073433995 -0.35289615 0.07249148 -0.65130925 0.08000293 0.059770513
-0.04686374 -0.39284474 0.020480545 -0.0085473275 -0.00055534946 -0.09875422 -0.21381117 -0.2842369
-0.08232002 -0.06289003 0.26023763 -0.4022794 0.15249628 -0.11257732 -0.26270357 -0.16907999
0.018297177 0.04680049 -0.21150734 0.3660256 0.13567783 0.1436201 -0.31583807 -0.24720569
0.18645206 0.16143036 0.0031098875 0.17564952 -0.11594832 -0.47154793 0.23648715 -0.00693123
0.13728566 -0.4386919 -0.55890304 -0.18495867 -0.14929527 0.043795653 -0.21611571 -0.13885146
-0.633373 0.013464853 -0.26979208 0.23665197 0.16656435 -0.21975002 -0.3120917 -0.074494235
0.013586622 -0.26383772 -0.10572357 0.05916064 -0.3479567 -0.35217616 -0.2668779 -0.082048126
-0.049124114 0.19787313 0.08055839 0.14602368 0.31547692 0.012759887 -0.42162097 -0.17233245
0.18697686 -0.35534123 -0.10822036 -0.0100087 -0.17186536 -0.017032774 0.10806448 0.1652032
-0.15904583 0.14635254 -0.1038813 0.009753941 0.28769988 0.05846884 -0.18804273 0.15570529
-0.05191787 -0.6968434 0.20611441 -0.046585977 -0.5961474 -0.23210235 -0.31210417 0.2276756
-0.017284263 -0.010610534 -0.024363592 0.24865958 0.05263504 -0.45363557 -0.017652854 -0.50622505
-0.11869257 -0.24699965 -0.08936146 0.015923597 -0.50381047 -0.052440982 0.16804792 0.14646702
-0.1711828 0.19036621 -0.100267686 0.04127583 -0.5614112 0.23063289 0.24496798 -0.6792868
0.23265326 -0.1336525 -0.4319825 -0.04072915 0.12737952 -0.44711497 -0.03928429 0.15907234
-0.29651573 -0.31516486 0.28201997 -0.15063684 -0.06777037 0.23106132 -0.31916967 0.042693954
0.060734406 -0.0063105947 0.040308367 -0.14692238 0.039644033 0.021856641 -0.24976556 -0.19523238
-0.056598336 -0.04742178 -0.26419753 -0.054598894 0.07135127 0.031999025 0.17162281 -0.096375935
-0.12966724 0.16442183 -0.24080321 0.09657229 0.22166987 -0.004119169 -0.5254877 -0.15209857
0.22677073 -0.017894188 -0.05324847 -0.19830786 0.06014209 0.028888196 -0.28365338 -0.02123491
-0.26334196 0.015645104 -0.15743785 0.1137333 0.2672795 -0.14525962 -0.4587555 -0.03778485
-0.05842579 -0.09156809 -0.24890007 -0.020726725 0.029501278 -0.0023189723 -0.025569003 -0.1085526
-0.31513095 -0.10326833 0.27860078 -0.0859187 0.15698877 0.058444686 -0.14750524 -0.018065173
-0.16932938 0.1545355 -0.15991595 -0.105256885 -0.44710654 -0.26729742 0.102693096 -0.23234889
-0.20904317 -0.2064305 -0.16504656 -0.036930013 0.2116173 -0.003433136 0.2889016 -0.56973165

sequential/conv2d/Conv2D_bias f4 [64]
00000000: 5ddd 83bb b0fe 61bc ba2c b1bc ffd7 27bc
00000010: 8e0d 59bc e276 88bd 805b cfbc 1387 30bc
00000020: dd35 0bbb 67c5 cabc 3a83 eebb dde3 babc
00000030: 92c6 3ebd ab47 27bc 3814 b9bb 01b3 98bc
00000040: 81d1 6ebc a56a 87bb 1ff9 1bbc 53d0 26bc
00000050: ea98 aebc c098 6dbd d39c fb3a d895 01bb
00000060: a080 37bc c82f 69bb 835b f0bb 1ddc f3bc
00000070: 665d aabc dd34 74bc b43f 82bc 4a16 5dbc
00000080: ead0 86b9 2ce0 a1bc de00 62bc 278c 73bc
00000090: c832 3bbc 9bf2 9f3b e38d ddba de60 83bc
000000a0: ae49 c0bb a800 39bc ab93 85bc 6813 75bc
000000b0: 7e28 66bc 60bb 6fbc 669f d6bb 3bb3 74bc
000000c0: dae5 d7bc efa4 f2bb 3dd2 62bc 9b47 10bc
000000d0: bf46 0abc b7fd 21bc 1d3a 1cbc 0e0c 8bbd
000000e0: b292 a8bd c0f5 69bc 98e3 84bc a1b8 81bd
000000f0: 62d5 95bd 590d c8bc fe50 79bd c14e 5abb
-0.0040241913 -0.013793632 -0.021627773 -0.010244369 -0.013247861 -0.066633 -0.025312185 -0.010774392
-0.0021241822 -0.024752332 -0.007278827 -0.022813732 -0.04657609 -0.010209958 -0.005648162 -0.018640043
-0.014576317 -0.004132586 -0.009519844 -0.010181504 -0.02131315 -0.058007002 0.0019196518 -0.0019773152
-0.0112001 -0.0035581458 -0.007335128 -0.029768044 -0.020796489 -0.014905182 -0.015899517 -0.013494084
-0.00025714125 -0.019760214 -0.013794152 -0.014864958 -0.011425681 0.0048812157 -0.0016903247 -0.0160374
-0.0058681583 -0.01129166 -0.016305765 -0.01495824 -0.01404774 -0.014632076 -0.0065497635 -0.01493531
-0.026354719 -0.0074049155 -0.01384407 -0.008806135 -0.008439719 -0.0098871505 -0.00953534 -0.067894086
-0.08231105 -0.014279783 -0.016221806 -0.06334043 -0.0731609 -0.024420427 -0.060868256 -0.00333111

sequential/conv2d_1/Conv2D/ReadVariableOp i1 [64, 3, 3, 64] scale=0.0060261707 zero_point=0
00000000: 0306 01f5 05fa 21f9 0a19 110b 20f3 1805
00000010: 0e07 ffea 221c f102 02f9 2116 0d13 09fe
00000020: f818 f8fb ee04 0302 fc16 1c06 15fe 0808
00000030: 1514 e70a 081a 0a04 f710 160d 0e07 f112
00000040: e8f3 00e0 0503 22ec 01f0 d111 f8eb bccb
00000050: 0d13 f6eb 140e 09e7 05c4 fb1d fcfa bed7
00000060: 07d8 d516 d4d7 c6e6 c2da 13ff 17f2 dff5
00000070: d900 d808 0412 e51b 10d3 f5e8 1710 13ea
00000080: 0f00 0b12 f307 0701 c6ff ecf5 00e3 0af1
00000090: 02e7 f3ef ea0d 14db 0afd fef0 eff4 ff09
000000a0: d101 1e14 fefa eddc f2fe f1e1 f6ef fefb
000000b0: fbd7 f5ae f7d5 e3fc f0f0 f7ed 0ee7 1ad5
000000c0: f604 06e0 ff05 e503 fd01 f619 fc04 cdf8
000000d0: 050d f7f6 1bdf 17e5 13d4 e0f0 0efe f5f3
000000e0: 0be6 da15 fafc f106 d6b1 ece2 f001 dbf3
000000f0: f401 02f1 fa10 060d 0de4 e401 e40a 00f9
0.018078512 0.036157023 0.0060261707 -0.066287875 0.030130854 -0.036157023 0.19886363 -0.042183194
0.060261708 0.15065427 0.1024449 0.066287875 0.19283746 -0.07834022 0.1446281 0.030130854
0.08436639 0.042183194 -0.0060261707 -0.13257575 0.2048898 0.16873278 -0.09039256 0.012052341
0.012052341 -0.042183194 0.19886363 0.13257575 0.07834022 0.114497244 0.054235537 -0.012052341
-0.048209365 0.1446281 -0.048209365 -0.030130854 -0.10847107 0.024104683 0.018078512 0.012052341
-0.024104683 0.13257575 0.16873278 0.036157023 0.12654959 -0.012052341 0.048209365 0.048209365
0.12654959 0.120523416 -0.15065427 0.060261708 0.048209365 0.15668043 0.060261708 0.024104683
-0.054235537 0.09641873 0.13257575 0.07834022 0.08436639 0.042183194 -0.09039256 0.10847107
-0.1446281 -0.07834022 0.0 -0.19283746 0.030130854 0.018078512 0.2048898 -0.120523416
0.0060261707 -0.09641873 -0.28323004 0.1024449 -0.048209365 -0.12654959 -0.4097796 -0.31938705
0.07834022 0.114497244 -0.060261708 -0.12654959 0.120523416 0.08436639 0.054235537 -0.15065427
0.030130854 -0.36157024 -0.030130854 0.17475896 -0.024104683 -0.036157023 -0.39772725 -0.247073
0.042183194 -0.24104683 -0.25912535 0.13257575 -0.2651515 -0.247073 -0.3495179 -0.15668043
-0.3736226 -0.22899449 0.114497244 -0.0060261707 0.13860193 -0.08436639 -0.19886363 -0.066287875
-0.23502065 0.0 -0.24104683 0.048209365 0.024104683 0.10847107 -0.16270661 0.16270661
0.09641873 -0.27117768 -0.066287875 -0.1446281 0.13860193 0.09641873 0.114497244 -0.13257575
0.09039256 0.0 0.066287875 0.10847107 -0.07834022 0.042183194 0.042183194 0.0060261707
-0.3495179 -0.0060261707 -0.120523416 -0.066287875 0.0 -0.17475896 0.060261708 -0.09039256
0.012052341 -0.15065427 -0.07834022 -0.1024449 -0.13257575 0.07834022 0.120523416 -0.22296831
0.060261708 -0.018078512 -0.012052341 -0.09641873 -0.1024449 -0.07231405 -0.0060261707 0.054235537
-0.28323004 0.0060261707 0.18078512 0.120523416 -0.012052341 -0.036157023 -0.114497244 -0.21694215
-0.08436639 -0.012052341 -0.09039256 -0.1868113 -0.060261708 -0.1024449 -0.012052341 -0.030130854
-0.030130854 -0.247073 -0.066287875 -0.494146 -0.054235537 -0.25912535 -0.17475896 -0.024104683
-0.09641873 -0.09641873 -0.054235537 -0.114497244 0.08436639 -0.15065427 0.15668043 -0.25912535
-0.060261708 0.024104683 0.036157023 -0.19283746 -0.0060261707 0.030130854 -0.16270661 0.018078512
-0.018078512 0.0060261707 -0.060261708 0.15065427 -0.024104683 0.024104683 -0.3073347 -0.048209365
0.030130854 0.07834022 -0.054235537 -0.060261708 0.16270661 -0.19886363 0.13860193 -0.16270661
0.114497244 -0.2651515 -0.19283746 -0.09641873 0.08436639 -0.012052341 -0.066287875 -0.07834022
0.066287875 -0.15668043 -0.22899449 0.12654959 -0.036157023 -0.024104683 -0.09039256 0.036157023
-0.25309917 -0.47606748 -0.120523416 -0.18078512 -0.09641873 0.0060261707 -0.22296831 -0.07834022
-0.07231405 0.0060261707 0.012052341 -0.09039256 -0.036157023 0.09641873 0.036157023 0.07834022
0.07834022 -0.16873278 -0.16873278 0.0060261707 -0.16873278 0.060261708 0.0 -0.042183194

sequential/conv2d_1/Conv2D_bias f4 [64]
00000000: b2d4 aebc 5130 8abd d59e 29be 6e1a 17be
00000010: 98d9 12bd 6053 9ebc 267c 6b3e ea96 93bd
00000020: 419e 11bc 66a8 87bd a2dd 23bd 0e5d 56bc
00000030: 6ae0 2fbe 1632 1bbd ef36 97bd 37ac 7bbe
00000040: 6a74 49bc 63df 48bd 9c1e 91bd ef05 8cbd
00000050: 2658 07bd c915 d1bd d2f7 35bd bfdf 55bc
00000060: 6db3 99bc 87fc d1bc 5b60 d3bc dda4 29bc
00000070: 0f01 d5bc 326d 83bc 825d 44bd eeb4 e3bd
00000080: 13b9 07bd b6d3 dabd 15df f4bc 0e34 a0bc
00000090: eb67 5fbd e81a 1cbd a5a2 c7bd 8ae3 e6bc
000000a0: 057d c7bd fd4f 2abd 0f3a e4bc c8b6 053e
000000b0: 729f babc 0110 fbbd 1aa7 b4bc d9c2 d3bd
000000c0: 5835 1ebe aca0 f1bc 2a4b e73d aa01 fc3b
000000d0: 11ed a7bb 3e5c 24bc 214d 56be f9b9 d0bc
000000e0: 2c58 c1bd 52e0 3fba 8aec f4bd cfce 89bc
000000f0: 9416 55bc fac9 15bd 8710 29be c559 08be
-0.021341655 -0.06747497 -0.16564496 -0.14756176 -0.035852045 -0.019326866 0.22996578 -0.07206519
-0.008887828 -0.06623916 -0.040006287 -0.013083709 -0.17175451 -0.037889563 -0.073835246 -0.24577413
-0.012295822 -0.049041163 -0.070859164 -0.06837069 -0.03304305 -0.10209233 -0.044425793 -0.0130538335
-0.018762315 -0.02563311 -0.025802782 -0.010354248 -0.026001481 -0.01604328 -0.04794074 -0.11118494
-0.033135485 -0.10684912 -0.02989153 -0.019556072 -0.054542463 -0.038111597 -0.09747819 -0.028184671
-0.097406425 -0.04158019 -0.027859716 0.13058007 -0.022781108 -0.12258912 -0.022052336 -0.103398986
-0.15450037 -0.02949556 0.11293633 0.007690628 -0.005124696 -0.010031758 -0.2092786 -0.025479304
-0.094406456 -0.0007319498 -0.11959179 -0.016822247 -0.013005871 -0.036569573 -0.16510211 -0.13315494

sequential/conv2d_2/Conv2D/ReadVariableOp i1 [64, 3, 3, 64] scale=0.005666449 zero_point=0
00000000: d1f8 07de fcf5 f9fa 07f9 0aff 11fe f7de
00000010: f20f 1414 f6f8 0d07 fa13 13ef 1e1f 03f6
00000020: 03e1 fa20 f112 0c0b e0ce 0a20 071a f206
00000030: f40e f607 ecda f213 0bcf fd20 1807 cfc4
00000040: f2fb fdec ed07 06cc fffc f318 ee03 0fc5
00000050: facf f9e3 01fb 03f3 03e4 08f3 18c4 07c6
00000060: 01fe 0706 03f6 d9f4 c215 05f9 bbe5 16d7
00000070: f508 fa06 f4e8 de0c fee8 ee0b 140a c3fb
00000080: 01fe 10f0 fd06 ecec f3f7 0c06 0fe2 05d9
00000090: 08c8 fdd5 0e0a 02da 08f3 1405 20c8 f6bf
000000a0: faf8 f9e4 fbf6 0bff f3f0 03f1 10e5 04df
000000b0: 18fd 01f8 1103 e102 0709 f4f6 07f3 feeb
000000c0: d406 11fa fd06 2a04 2ce9 0617 b8fb e0ef
000000d0: 02f7 17f5 d5ce 180b dd15 fcd2 1aef 07da
000000e0: ff03 0900 4fed e3ed ceeb 00f8 22c8 ed05
000000f0: d620 07ef dbcf dfdc 02f2 dbf8 f404 15bd
-0.26632312 -0.045331594 0.039665144 -0.19265927 -0.022665797 -0.062330943 -0.039665144 -0.033998694
0.039665144 -0.039665144 0.056664493 -0.005666449 0.09632964 -0.011332898 -0.050998043 -0.19265927
-0.07933029 0.08499674 0.113328986 0.113328986 -0.056664493 -0.045331594 0.07366384 0.039665144
-0.033998694 0.107662536 0.107662536 -0.09632964 0.16999348 0.17565992 0.016999347 -0.056664493
0.016999347 -0.17565992 -0.033998694 0.18132637 -0.08499674 0.10199609 0.06799739 0.062330943
-0.18132637 -0.28332245 0.056664493 0.18132637 0.039665144 0.14732768 -0.07933029 0.033998694
-0.06799739 0.07933029 -0.056664493 0.039665144 -0.113328986 -0.21532507 -0.07933029 0.107662536
0.062330943 -0.27765602 -0.016999347 0.18132637 0.13599478 0.039665144 -0.27765602 -0.33998695
-0.07933029 -0.028332246 -0.016999347 -0.113328986 -0.107662536 0.039665144 0.033998694 -0.29465535
-0.005666449 -0.022665797 -0.07366384 0.13599478 -0.10199609 0.016999347 0.08499674 -0.33432052
-0.033998694 -0.27765602 -0.039665144 -0.16432703 0.005666449 -0.028332246 0.016999347 -0.07366384
0.016999347 -0.15866058 0.045331594 -0.07366384 0.13599478 -0.33998695 0.039665144 -0.32865405
0.005666449 -0.011332898 0.039665144 0.033998694 0.016999347 -0.056664493 -0.22099152 -0.06799739
-0.35131985 0.118995436 0.028332246 -0.039665144 -0.39098498 -0.15299413 0.124661885 -0.23232442
-0.062330943 0.045331594 -0.033998694 0.033998694 -0.06799739 -0.13599478 -0.19265927 0.06799739
-0.011332898 -0.13599478 -0.10199609 0.062330943 0.113328986 0.056664493 -0.3456534 -0.028332246
0.005666449 -0.011332898 0.09066319 -0.09066319 -0.016999347 0.033998694 -0.113328986 -0.113328986
-0.07366384 -0.050998043 0.06799739 0.033998694 0.08499674 -0.16999348 0.028332246 -0.22099152
0.045331594 -0.31732115 -0.016999347 -0.24365732 0.07933029 0.056664493 0.011332898 -0.21532507
0.045331594 -0.07366384 0.113328986 0.028332246 0.18132637 -0.31732115 -0.056664493 -0.36831918
-0.033998694 -0.045331594 -0.039665144 -0.15866058 -0.028332246 -0.056664493 0.062330943 -0.005666449
-0.07366384 -0.09066319 0.016999347 -0.08499674 0.09066319 -0.15299413 0.022665797 -0.18699282
0.13599478 -0.016999347 0.005666449 -0.045331594 0.09632964 0.016999347 -0.17565992 0.011332898
0.039665144 0.050998043 -0.06799739 -0.056664493 0.039665144 -0.07366384 -0.011332898 -0.118995436
-0.24932377 0.033998694 0.09632964 -0.033998694 -0.016999347 0.033998694 0.23799087 0.022665797
0.24932377 -0.13032833 0.033998694 0.13032833 -0.40798435 -0.028332246 -0.18132637 -0.09632964
0.011332898 -0.050998043 0.13032833 -0.062330943 -0.24365732 -0.28332245 0.13599478 0.062330943
-0.19832572 0.118995436 -0.022665797 -0.26065665 0.14732768 -0.09632964 0.039665144 -0.21532507
-0.005666449 0.016999347 0.050998043 0.0 0.44764948 -0.107662536 -0.16432703 -0.107662536
-0.28332245 -0.118995436 0.0 -0.045331594 0.19265927 -0.31732115 -0.107662536 0.028332246
-0.23799087 0.18132637 0.039665144 -0.09632964 -0.20965862 -0.27765602 -0.18699282 -0.20399217
0.011332898 -0.07933029 -0.20965862 -0.045331594 -0.06799739 0.022665797 0.118995436 -0.37965208

sequential/conv2d_2/Conv2D_bias f4 [64]
00000000: 13de 44be 2d4c 55bd 4543 fabd ee50 79be
00000010: f024 dcbd 171d 5fbd af9e cbbc e473 b3bb
00000020: 9c50 6dbd f1e4 82bd 2334 b9bc bc4a ecbd
00000030: 1c74 bf3d 6a32 6bbd f7c9 2abd 914e 24be
00000040: 355e f7bc f12a e4bc 45ff 20bc 1a17 b4bc
00000050: 71f0 cb3d 6d85 4abd 88b1 87bd c888 32bd
00000060: e1e4 31bd a873 f4bd 7e36 9abd 7176 febc
00000070: cb27 883c 850d b6bc 1325 3bbd 8bae 98bc
00000080: 29b5 c2bd 50df 44bd 04b7 a0bd b477 4f3c
00000090: 72f1 9dbd d8b7 32bc a71d 2cbd b6af d3bd
000000a0: 2985 5c3d b9cc cfbd abec 07be e201 d93c
000000b0: fdbb 1abe dbcd 693d 2445 4b3b e593 93bc
000000c0: 1f1d 05be 15c6 f3bd ea56 26be 906c 1d3d
000000d0: 4a9b 53bd 8a3c c63c b27b b2bd be5d 1dbe
000000e0: 081c e7bd 14ed 02be 63cb 0abe a7d2 bfbd
000000f0: 1891 57bd 3fb9 2fbd 9a0c 653c 5d1d 6fbe
-0.1922534 -0.0520746 -0.12219862 -0.24347278 -0.10749233 -0.0544711 -0.02485594 -0.0054764617
-0.057938203 -0.06391323 -0.022607869 -0.11537692 0.09348318 -0.057421125 -0.041696515 -0.16045596
-0.030196289 -0.027852507 -0.009826486 -0.021983672 0.0995797 -0.04944365 -0.06625658 -0.043587476
-0.043431167 -0.11936122 -0.07529925 -0.031062337 0.016620537 -0.022223243 -0.045689654 -0.018637916
-0.0950721 -0.04806453 -0.078474075 0.012662817 -0.07712068 -0.01090809 -0.042020466 -0.103362486
0.05383793 -0.101464696 -0.13273875 0.026490156 -0.15110774 0.057081085 0.0031016553 -0.018014858
-0.1299939 -0.119030155 -0.16244093 0.03843361 -0.051661767 0.02419879 -0.08714999 -0.15367791
-0.112846434 -0.1278575 -0.13554148 -0.093663506 -0.052628607 -0.042901274 0.013980055 -0.23351045

sequential/dense/MatMul/ReadVariableOp/transpose i1 [64, 4096] scale=0.0061541814 zero_point=0
00000000: 0502 131b 0f10 0b08 fc0e 221a 1fe5 f916
00000010: fbfa f915 10f4 f714 10eb 2203 00f8 fd0d
00000020: e817 f703 fef6 1807 241e 0310 fd10 fd10
00000030: 0304 0413 06f9 0518 551a 06f3 f912 06f6
00000040: 21ea 01ff 1619 34f6 f5fc 0816 0919 fc08
00000050: 18f8 d222 0de6 02fb 0712 fdfe e4f7 032c
00000060: 0ef8 f4f6 fcf9 0200 0ffb 00e2 341a 0731
00000070: f80c 040b 06fa 1a1a ec0f 0af4 01d7 f1f7
00000080: 1510 f7ea 0ff0 0b18 f301 0833 1304 140e
00000090: 15f9 1c3e f911 00f2 02ed fa0e 13fa 051b
000000a0: 100f f605 fbf6 09fc 0bf2 0909 1b0d 1e00
000000b0: 29fd 0aec fa12 1202 eefd 01fa 0303 0ffe
000000c0: f3fa 1b0f 03fa f2fd 11fe e10c 2b1d f1fc
000000d0: 0cf9 fb1c 00f0 230d 0411 e902 eef2 ffe7
000000e0: fff0 ff17 ff03 0b11 3cd7 f7d9 170d 2beb
000000f0: 120e 14fa f8f8 110e f23a 060a f913 100b
0.030770907 0.012308363 0.11692945 0.1661629 0.09231272 0.0984669 0.067696 0.04923345
-0.024616726 0.086158544 0.20924217 0.16000871 0.19077963 -0.1661629 -0.043079272 0.135392
-0.030770907 -0.03692509 -0.043079272 0.12923782 0.0984669 -0.07385018 -0.05538763 0.12308363
0.0984669 -0.12923782 0.20924217 0.018462544 0.0 -0.04923345 -0.018462544 0.08000436
-0.14770035 0.14154617 -0.05538763 0.018462544 -0.012308363 -0.061541814 0.14770035 0.043079272
0.22155052 0.18462545 0.018462544 0.0984669 -0.018462544 0.0984669 -0.018462544 0.0984669
0.018462544 0.024616726 0.024616726 0.11692945 0.03692509 -0.043079272 0.030770907 0.14770035
0.52310544 0.16000871 0.03692509 -0.08000436 -0.043079272 0.11077526 0.03692509 -0.061541814
0.20308799 -0.135392 0.0061541814 -0.0061541814 0.135392 0.15385453 0.32001743 -0.061541814
-0.067696 -0.024616726 0.04923345 0.135392 0.05538763 0.15385453 -0.024616726 0.04923345
0.14770035 -0.04923345 -0.28309235 0.20924217 0.08000436 -0.16000871 0.012308363 -0.030770907
0.043079272 0.11077526 -0.018462544 -0.012308363 -0.17231709 -0.05538763 0.018462544 0.270784
0.086158544 -0.04923345 -0.07385018 -0.061541814 -0.024616726 -0.043079272 0.012308363 0.0
0.09231272 -0.030770907 0.0 -0.18462545 0.32001743 0.16000871 0.043079272 0.3015549
-0.04923345 0.07385018 0.024616726 0.067696 0.03692509 -0.03692509 0.16000871 0.16000871
-0.12308363 0.09231272 0.061541814 -0.07385018 0.0061541814 -0.25232145 -0.09231272 -0.05538763
0.12923782 0.0984669 -0.05538763 -0.135392 0.09231272 -0.0984669 0.067696 0.14770035
-0.08000436 0.0061541814 0.04923345 0.31386325 0.11692945 0.024616726 0.12308363 0.086158544
0.12923782 -0.043079272 0.17231709 0.38155925 -0.043079272 0.10462108 0.0 -0.086158544
0.012308363 -0.11692945 -0.03692509 0.086158544 0.11692945 -0.03692509 0.030770907 0.1661629
0.0984669 0.09231272 -0.061541814 0.030770907 -0.030770907 -0.061541814 0.05538763 -0.024616726
0.067696 -0.086158544 0.05538763 0.05538763 0.1661629 0.08000436 0.18462545 0.0
0.25232145 -0.018462544 0.061541814 -0.12308363 -0.03692509 0.11077526 0.11077526 0.012308363
-0.11077526 -0.018462544 0.0061541814 -0.03692509 0.018462544 0.018462544 0.09231272 -0.012308363
-0.08000436 -0.03692509 0.1661629 0.09231272 0.018462544 -0.03692509 -0.086158544 -0.018462544
0.10462108 -0.012308363 -0.19077963 0.07385018 0.2646298 0.17847127 -0.09231272 -0.024616726
0.07385018 -0.043079272 -0.030770907 0.17231709 0.0 -0.0984669 0.21539634 0.08000436
0.024616726 0.10462108 -0.14154617 0.012308363 -0.11077526 -0.086158544 -0.0061541814 -0.15385453
-0.0061541814 -0.0984669 -0.0061541814 0.14154617 -0.0061541814 0.018462544 0.067696 0.10462108
0.3692509 -0.25232145 -0.05538763 -0.24001308 0.14154617 0.08000436 0.2646298 -0.12923782
0.11077526 0.086158544 0.12308363 -0.03692509 -0.04923345 -0.04923345 0.10462108 0.086158544
-0.086158544 0.35694253 0.03692509 0.061541814 -0.043079272 0.11692945 0.0984669 0.067696

sequential/dense/MatMul_bias f4 [64]
00000000: b59b 113d f14d 61bd 3e33 1fbb d1ce 30bd
00000010: ba0d 49bd c3c6 08bc e6c9 d1bb e6b4 4c3a
00000020: c13e 69bd 563e d4bc 80c3 ff3d 8658 633c
00000030: 758d 88bc e605 2dbd 6508 a3bd c9f1 2d3c
00000040: 5bee bf3b dacf 7bbc 5704 4abc 2895 31bd
00000050: 1a7f 46bd c167 18bc ca3f 8cbc 35da fabb
00000060: 151e b5bd 797b 9ebc bd69 a0bd 9bcc ca3d
00000070: 5ced ce3c 5cfe b7bc 7a00 74bd db14 17bd
00000080: d7d4 2c3d 2693 213e 5e08 193e 72d5 8fbc
00000090: 4b02 53bd f1a0 a73c 7039 c8bc b049 fb3c
000000a0: b964 0fbc 1991 94bc 452b e7bd 469e 7cbd
000000b0: 818a 00bd 8da4 373d 7715 b33a 7068 e1bc
000000c0: 737d 2ebd 9405 c6bc 3a72 99bc 7644 983c
000000d0: d43b ff3c a7d5 803d 1a4d 9fbc 85da 303e
000000e0: 8287 eebc 102b 20bd d462 b6bc 321f 5f3d
000000f0: e7ca 19bd b133 a43b a2c7 55bc f583 2dbc
0.035548884 -0.05500597 -0.0024292017 -0.043165985 -0.049085356 -0.00834817 -0.006402242 0.00078089384
-0.056944612 -0.02590863 0.124884605 0.013876086 -0.016669014 -0.042241953 -0.079605855 0.010616728
0.0058572716 -0.01536938 -0.012330136 -0.043355137 -0.048461057 -0.009302081 -0.01712026 -0.007655407
-0.08843628 -0.019345986 -0.07832668 0.09902307 0.025259666 -0.022460155 -0.059570767 -0.036885124
0.042195167 0.15778789 0.14944598 -0.017557833 -0.05151586 0.020462485 -0.02444145 0.030674785
-0.0087520415 -0.018135594 -0.1128755 -0.06167438 -0.031382088 0.044834662 0.0013663013 -0.02751562
-0.042600106 -0.024172582 -0.018731225 0.018587332 0.031156458 0.06290751 -0.019445945 0.17270859
-0.02911735 -0.039103568 -0.022263922 0.05447311 -0.03754702 0.005011045 -0.013048084 -0.010590543

sequential/dense_1/MatMul/ReadVariableOp/transpose i1 [29, 64] scale=0.0061737467 zero_point=0
00000000: e6fa f6c1 181d cfc8 07fc 0cba e107 0e15
00000010: eb1b 0fd1 2e14 ee13 0df3 0700 dce9 f807
00000020: 16cb c905 f400 e8e3 d801 cd2d deff bbec
00000030: 23f8 e3da 28c1 e7bd 1fe4 00ea f502 e30e
00000040: b70e 01bc ea22 e3d8 e2ec c7e8 dc27 e1e1
00000050: cfe3 1e03 f5f6 220d dfd8 de0f 290d d905
00000060: fc1a ace6 d811 1eb8 eb0a 1116 f020 02e6
00000070: 04a7 09f2 35a9 0bce 05c4 05f3 10f0 0e0b
00000080: 21d1 12e6 1aec e510 1fed cf39 e9e2 e400
00000090: d3e1 dcec 3de1 17fc 39ea f90e 2219 04f8
000000a0: f9c8 d0e5 f11f e303 1108 be1c 11b7 e3e7
000000b0: 1ad7 f8f9 0dde 1ace e2e1 fbef dfe7 e50d
000000c0: eb11 27ed fceb 0b1b bae4 d6e2 ddd9 b9f7
000000d0: f409 0e19 1012 0d22 f815 c1d4 2623 e3df
000000e0: 030f 86e1 d50b 07de d9dc 0be0 f1d8 d216
000000f0: efde f6d9 1dda 0dca aef1 ebca 0dbb e3e3
-0.16051741 -0.03704248 -0.061737467 -0.38894603 0.14816992 0.17903866 -0.3025136 -0.34572983
0.04321623 -0.024694987 0.07408496 -0.43216226 -0.19138615 0.04321623 0.08643246 0.12964869
-0.12964869 0.16669115 0.0926062 -0.29016608 0.28399235 0.12347493 -0.111127436 0.11730119
0.080258705 -0.080258705 0.04321623 0.0 -0.22225487 -0.14199618 -0.049389973 0.04321623
0.13582243 -0.32720858 -0.33955607 0.030868733 -0.07408496 0.0 -0.14816992 -0.17903866
-0.24694987 0.0061737467 -0.3148611 0.2778186 -0.20990738 -0.0061737467 -0.42598853 -0.12347493
0.21608113 -0.049389973 -0.17903866 -0.23460238 0.24694987 -0.38894603 -0.15434366 -0.41364104
0.19138615 -0.17286491 0.0 -0.13582243 -0.067911215 0.012347493 -0.17903866 0.08643246
-0.4506835 0.08643246 0.0061737467 -0.41981477 -0.13582243 0.20990738 -0.17903866 -0.24694987
-0.1852124 -0.12347493 -0.35190356 -0.14816992 -0.22225487 0.24077612 -0.19138615 -0.19138615
-0.3025136 -0.17903866 0.1852124 0.01852124 -0.067911215 -0.061737467 0.20990738 0.080258705
-0.20373364 -0.24694987 -0.20990738 0.0926062 0.2531236 0.080258705 -0.24077612 0.030868733
-0.024694987 0.16051741 -0.51859474 -0.16051741 -0.24694987 0.10495369 0.1852124 -0.44450974
-0.12964869 0.061737467 0.10495369 0.13582243 -0.09877995 0.1975599 0.012347493 -0.16051741
0.024694987 -0.54946345 0.055563718 -0.08643246 0.32720858 -0.53711593 0.067911215 -0.30868733
0.030868733 -0.3704248 0.030868733 -0.080258705 0.09877995 -0.09877995 0.08643246 0.067911215
0.20373364 -0.29016608 0.111127436 -0.16051741 0.16051741 -0.12347493 -0.16669115 0.09877995
0.19138615 -0.11730119 -0.3025136 0.35190356 -0.14199618 -0.1852124 -0.17286491 0.0
-0.2778186 -0.19138615 -0.22225487 -0.12347493 0.37659854 -0.19138615 0.14199618 -0.024694987
0.35190356 -0.13582243 -0.04321623 0.08643246 0.20990738 0.15434366 0.024694987 -0.049389973
-0.04321623 -0.34572983 -0.29633984 -0.16669115 -0.0926062 0.19138615 -0.17903866 0.01852124
0.10495369 0.049389973 -0.40746728 0.17286491 0.10495369 -0.4506835 -0.17903866 -0.15434366
0.16051741 -0.2531236 -0.049389973 -0.04321623 0.080258705 -0.20990738 0.16051741 -0.30868733
-0.1852124 -0.19138615 -0.030868733 -0.10495369 -0.20373364 -0.15434366 -0.16669115 0.080258705
-0.12964869 0.10495369 0.24077612 -0.11730119 -0.024694987 -0.12964869 0.067911215 0.16669115
-0.43216226 -0.17286491 -0.25929737 -0.1852124 -0.21608113 -0.24077612 -0.438336 -0.055563718
-0.07408496 0.055563718 0.08643246 0.15434366 0.09877995 0.111127436 0.080258705 0.20990738
-0.049389973 0.12964869 -0.38894603 -0.27164486 0.23460238 0.21608113 -0.17903866 -0.20373364
0.01852124 0.0926062 -0.7531971 -0.19138615 -0.2654711 0.067911215 0.04321623 -0.20990738
-0.24077612 -0.22225487 0.067911215 -0.1975599 -0.0926062 -0.24694987 -0.28399235 0.13582243
-0.10495369 -0.20990738 -0.061737467 -0.24077612 0.17903866 -0.23460238 0.080258705 -0.3333823
-0.5062472 -0.0926062 -0.12964869 -0.3333823 0.080258705 -0.42598853 -0.17903866 -0.17903866

sequential/dense_1/MatMul_bias f4 [29]
00000000: 5a79 0bbe 72dd 8bbc 9d0d e3bc 1a7f 953c
00000010: 959e fc3c 2833 23be ca22 48bc 922b a4bd
00000020: e5ea 743d 9b2d 48bd 94a6 f7bb c9b4 12be
00000030: 2984 aa39 6c00 95bd 4595 6d3c 9153 ba3d
00000040: 248d eabc 6c55 e33c 1445 a73d 45df 07bd
00000050: fced 283d 3b51 3d3d eda6 a23c cc0e 5fbc
00000060: 5ee0 113c fa45 acbc e461 0f3e 01d6 76bc
00000070: 2dff 15be
-0.1362051 -0.017073367 -0.027716452 0.018249083 0.030837337 -0.15937483 -0.012215326 -0.08016123
0.059794325 -0.048871618 -0.0075576995 -0.14326777 0.00032523394 -0.07275471 0.014500921 0.0909797
-0.028631754 0.027750693 0.081674725 -0.03317191 0.041242585 0.046220046 0.019854987 -0.013614368
0.008903591 -0.021029461 0.14002186 -0.015065671 -0.14648123
